best_model.pt (torch, 18851 bytes, 7 tensors)

model.0.weight f4 [126, 25]
0	0x3e9b59ef	0.3034205
1	0x3e27e1e1	0.1639476
2	0x3a5ca026	0.0008416198
3	0xbb42497f	-0.0029645858
4	0x3db8c38c	0.090216726
5	0x3df86155	0.121279396
6	0x3d9af737	0.07566684
7	0xbc425e66	-0.011863327
8	0xbe53190b	-0.20615022
9	0xbe29c803	-0.16580205
10	0x3e734807	0.23757945
11	0xbe16c0ee	-0.14722034
12	0x3ef359f7	0.47529575
13	0x3c94f053	0.018181002
14	0x3db4270c	0.0879651
15	0xbc22a079	-0.009925955
16	0x3d15b57c	0.03655003
17	0x3ec1800f	0.37793013
18	0xbc370583	-0.011170748
19	0x3dbf772c	0.09348902
20	0xbef63c39	-0.4809282
21	0x3e16d1f1	0.14728524
22	0x3e7eee4a	0.24895588
23	0xbd5e1a85	-0.05422451
24	0xbe2d9613	-0.1695178
25	0xbdfd3069	-0.12362749
26	0x3e378918	0.17923391
27	0x3e209336	0.15681157
28	0xbeb1e9ec	-0.3474878
29	0x3de76f66	0.113005444
30	0x3e444438	0.19166648
31	0x3e03156e	0.12801144
32	0xbe7bcadf	-0.24589108
33	0x3de25edd	0.1105325
34	0xbe962ee9	-0.29332665
35	0x3e6edc5b	0.23326246
36	0x3e9c305f	0.30505654
37	0x3bf60cd6	0.0075088544
38	0xbe7ad416	-0.24494967
39	0xbead3fc4	-0.33837712
40	0xbddca519	-0.107736774
41	0x3e144f2a	0.14483324
42	0xbdc3c880	-0.09559727
43	0x3f180e97	0.5939726
44	0xbe584eb2	-0.2112377
45	0x3e64ae47	0.22332107
46	0xbd9104d0	-0.07080996
47	0x3dee96b0	0.11649835
48	0xbd202bb1	-0.039104167
49	0x3df5184a	0.119675234
50	0xbe352f56	-0.17693838
51	0x3de5b452	0.11216034
52	0x3d7e2173	0.06204362
53	0xbe20f0da	-0.15716878
54	0x3d128831	0.035774413
55	0x3e34fc5d	0.17674394
56	0x3dad80ce	0.08471833
57	0xbe2a2b0b	-0.16617982
58	0x3dba6d46	0.091028735
59	0xbea2b6ae	-0.3178
60	0x3eb2f580	0.34952927
61	0x3db081ab	0.08618482
62	0x3eb81bbe	0.35958666
63	0x3d1bcf63	0.038039576
64	0xbdc5e618	-0.096630275
65	0xbe4d42d3	-0.20045023
66	0x3c6e462a	0.014543096
67	0x3dec7cff	0.115472786
68	0x3ebe6ee8	0.3719399
69	0xbe55a910	-0.20865273
70	0x3e249337	0.16071783
71	0xbe0d1b36	-0.13779911
72	0x3e4c1eeb	0.1993367
73	0x3d9029ff	0.0703926
74	0x3ed8ad78	0.42319846
75	0x3dd1b40e	0.10239421
76	0xbea29a50	-0.31758356
77	0xbe4989d1	-0.19681479
78	0x3d848e8d	0.06472502
79	0xbe8da70b	-0.27666506
80	0xbd3f49d6	-0.046701275
81	0xbe47f619	-0.19527473
82	0xbe6b8137	-0.2299851
83	0xbdc1e8fb	-0.094682656
84	0x3f22f9b9	0.63662297
85	0xbe58a86e	-0.21158001
86	0xbe090913	-0.13382368
87	0x3e6f3e27	0.23363553
88	0xbdb29fe2	-0.087219015
89	0xbe8b3eef	-0.27196452
90	0x3d131599	0.03590927
91	0xbe5f2b3b	-0.21793835
92	0x3e259591	0.16170336
93	0xbe084c8f	-0.13310455
94	0x3b7d83d1	0.0038683305
95	0xbd1152aa	-0.035479225
96	0x3d919523	0.07108524
97	0x3e352c35	0.17692645
98	0x3d67538a	0.056476153
99	0x3e2f3b35	0.1711243
100	0x3c9563a4	0.018235989
101	0x3e6254ef	0.22102712
102	0xbe016c5b	-0.1263899
103	0xbd281237	-0.041032996
104	0x3e11ecc8	0.14250481
105	0xbd8ab068	-0.06771928
106	0x3e7a575e	0.2444739
107	0xbd9a1fb7	-0.075255804
108	0x3b35d0ff	0.002774298
109	0x3c84d744	0.016215928
110	0x3dc3ffbd	0.095702626
111	0x3d18b937	0.03728601
112	0xbde025aa	-0.10944684
113	0x3e97a005	0.29614273
114	0xbe9a96d3	-0.30193195
115	0x3d39010e	0.04516702
116	0xbe844f89	-0.2584193
117	0xbe37dc6b	-0.17955177
118	0x3e0cd728	0.1375395
119	0xbe00d32d	-0.12580557
120	0x3f04ba69	0.5184694
121	0xbd810f11	-0.06301702
122	0x3e85bdb0	0.26121283
123	0xbca4f345	-0.020135531
124	0x3e2df12f	0.16986535
125	0xbdff5218	-0.1246683
126	0xbe250573	-0.1611536
127	0xbd194224	-0.037416592
128	0x3ec67495	0.3876082
129	0x3e930039	0.28711107
130	0xbdc01a27	-0.09379988
131	0x3e65f400	0.2245636
132	0x3e4d57a4	0.20052963
133	0x3bb2d388	0.0054573454
134	0xbe27e451	-0.1639569
135	0x3eb2cb1a	0.3492058
136	0xbe448b18	-0.19193685
137	0x3eb6a4ac	0.3567251
138	0x3e859ce4	0.2609626
139	0xbdf75768	-0.12077218
140	0xbd450ab6	-0.048105918
141	0xbe83ca40	-0.25740242
142	0xbd903d79	-0.07042975
143	0xbd715ef2	-0.058928438
144	0x3cba3398	0.02272968
145	0x3d6e652b	0.05820195
146	0x3d9d8415	0.07691208
147	0x3d67947b	0.056538086
148	0x3e10170b	0.1407129
149	0xbd683b3e	-0.056697123
150	0x3d11438d	0.035464812
151	0x3dabbe36	0.08385889
152	0x3e89413d	0.26807585
153	0x3d35ae82	0.044355877
154	0xbe2c37df	-0.16818188
155	0xbe7ed109	-0.24884428
156	0xbe3de88d	-0.18545742
157	0xbd5c6351	-0.053805653
158	0x3c19159a	0.009343529
159	0x3f0a96cd	0.54136354
160	0xbc1e0b31	-0.009646223
161	0x3e6da2d9	0.23206653
162	0x3b765300	0.0037586093
163	0xbdd36657	-0.10322254
164	0x3e4873a3	0.19575362
165	0xbddc8d5b	-0.10769149
166	0xbe8bafa2	-0.27282435
167	0xbe50e7b1	-0.20400883
168	0xbda35dac	-0.07976851
169	0xbc8f6017	-0.017501874
170	0x3e91d413	0.28482112
171	0xbe0c17bd	-0.1368093
172	0x3e79ced8	0.24395311
173	0x3e91417f	0.28370282
174	0xbd0edd9f	-0.034879323
175	0xbdcf2c2b	-0.10115846
176	0xbe34dec6	-0.17663106
177	0xbd92890a	-0.071550444
178	0xbc9dcd11	-0.019262822
179	0x3e97d143	0.29651842
180	0x3dbdaa42	0.0926099
181	0x3f0ef6ec	0.5584552
182	0x3e40f990	0.188452
183	0x3da2c7be	0.07948254
184	0xbee70148	-0.45118165
185	0x3edae9a4	0.4275638
186	0x3a78d486	0.00094921177
187	0x3ed9926d	0.42494527
188	0xbda68f40	-0.081327915
189	0x3d0a4893	0.03376062
190	0x3e1de217	0.15418278
191	0xbcf4f291	-0.02990082
192	0x3e38ae29	0.18035187
193	0x3e8fdb02	0.28096777
194	0x3cd5be88	0.026091829
195	0x3c60b4dd	0.013714996
196	0xbd8fef11	-0.0702802
197	0x3d0cf0a0	0.034409165
198	0x3e21aa98	0.15787733
199	0xb9dd12ce	-0.00042166415
200	0x3df42cb4	0.11922589
201	0xbe18e2ad	-0.1493022
202	0xbe6aab21	-0.22916843
203	0x3e077fa8	0.1323229
204	0xbe1c081d	-0.1523747
205	0xbe86a06b	-0.26294264
206	0xbda0af6f	-0.07845961
207	0xbe27d8f2	-0.16391352
208	0xbe62100c	-0.22076434
209	0x3edea782	0.43487173
210	0xbe90194f	-0.2814431
211	0x3d5e3dcf	0.054258164
212	0xbe72d8f1	-0.23715569
213	0xbd1132b7	-0.035448756
214	0xbf226aae	-0.6344403
215	0x3e2e2c44	0.17009073
216	0x3e5fb038	0.21844566
217	0x3e0b8ebc	0.13628668
218	0xbca171c3	-0.019707566
219	0xbd0e0602	-0.0346737
220	0x3e902e71	0.28160432
221	0x3e314b77	0.17313944
222	0x3d9372e3	0.07199647
223	0x3bba7f82	0.0056914696
224	0x3d4568d2	0.048195668
225	0xba51c0c3	-0.0008001441
226	0x3d3e3e1b	0.046445947
227	0x3d710f03	0.058852207
228	0xbe9a3111	-0.3011556
229	0xbdadcde9	-0.0848654
230	0x3bf01406	0.0073266057
231	0xbc969a54	-0.018384136
232	0x3c97cc19	0.018529939
233	0xbc576190	-0.013145819
234	0xbec98aff	-0.39363858
235	0x3e772f89	0.24139227
236	0x3e12c1b9	0.14331712
237	0x3e84b464	0.25918877
238	0x3d4a0697	0.04932269
239	0xbe6e1583	-0.23250394
240	0xbe16e08a	-0.14734092
241	0x3dd9d12e	0.10635601
242	0x3ea96639	0.33085802
243	0x3efc8efc	0.49327838
244	0x3e61ab71	0.22038056
245	0x3e12e0d7	0.14343582
246	0xbd9a2076	-0.07525723
247	0x3e41d721	0.18929721
248	0xbce3c9f4	-0.02780626
249	0xbe26aa02	-0.1627579
250	0x3e4e6029	0.2015387
251	0x3cef769b	0.02923136
252	0xbd8054a9	-0.06266148
253	0x3d638f75	0.055556733
254	0x3eaf0b40	0.3418827
255	0x3d548460	0.051884055

model.0.bias f4 [126]
0	0x3dee225a	0.11627646
1	0x3e3ea08a	0.18615928
2	0x3ebb80e1	0.36621764
3	0x3eaa8058	0.33301044
4	0x3e48bea2	0.1960397
5	0x3d8e24a9	0.06940586
6	0x3e4d48a6	0.20047244
7	0xbe3e61b4	-0.18591958
8	0x3ee01483	0.4376565
9	0x3efe1ca3	0.49631223
10	0x3e237142	0.15961173
11	0x3ca43905	0.02004672
12	0x3f0da94d	0.5533646
13	0xbeaf8864	-0.34283745
14	0x3e9ca1b0	0.30592108
15	0x3dadf267	0.084935
16	0x3de7b83b	0.11314436
17	0x3ee7992f	0.45234057
18	0x3eb41321	0.35170844
19	0xbe5f2b18	-0.21793783
20	0x3d9fbd87	0.07799821
21	0xbda4625a	-0.080265716
22	0x3e491103	0.19635396
23	0xbe7d99f3	-0.24765758
24	0x3ef7a575	0.4836842
25	0x3cbf00eb	0.023315867
26	0x3e9d5713	0.30730495
27	0x3f4547a2	0.7706243
28	0x3eb7f63a	0.35930043
29	0x3f1eaf80	0.6198654
30	0x3e71b63a	0.2360467
31	0x3e8ea866	0.27862853
32	0x3be869e7	0.0070927027
33	0x3cedc651	0.029025229
34	0xbda5cd7e	-0.08095835
35	0x3ecd242f	0.40066668
36	0x3dfb1309	0.1225949
37	0x3e695287	0.22785388
38	0x3e670b0b	0.22562806
39	0x3ed09e51	0.40745786
40	0x3e812b21	0.25228217
41	0xbe99642a	-0.29959232
42	0x3f30fd96	0.6913694
43	0x3e4c3c19	0.199448
44	0x3eb5628c	0.35426748
45	0x3e973745	0.29534355
46	0xbd84a1cf	-0.06476175
47	0x3d9eda25	0.077564515
48	0xbe644427	-0.22291623
49	0x3de3ed5c	0.11129257
50	0x3ecbed33	0.39829406
51	0x3f07b748	0.5301404
52	0x3eb513c8	0.35366654
53	0x3d8685a5	0.065684594
54	0x3f14c644	0.5811503
55	0xbdb30225	-0.087406434
56	0x3e801ec8	0.25023484
57	0x3eb4b849	0.35296848
58	0xbdc8d1db	-0.09805652
59	0x3ec7df76	0.39037675
60	0xbe99325e	-0.2992124
61	0x3dd2625c	0.10272667
62	0x3c02c742	0.007982077
63	0xbee2a236	-0.44264382
64	0x3e0b8d4a	0.13628116
65	0x3e212217	0.1573566
66	0xbe38fa4d	-0.18064232
67	0x3c5bd318	0.013417028
68	0x3e8cadaa	0.27476245
69	0xbe0527dc	-0.13003486
70	0x3e998475	0.2998387
71	0x3f1fd1f0	0.62429714
72	0xbe0b2e11	-0.13591792
73	0x3d4382cc	0.04773216
74	0x3edf7878	0.43646598
75	0xbd76f1f8	-0.060289353
76	0x3d9df99c	0.07713625
77	0x3dc7c364	0.09754065
78	0x3cdbd331	0.026834102
79	0x3eb3b73e	0.3510074
80	0x3eae4290	0.34035158
81	0x3e6b645e	0.22987506
82	0xbe2a7747	-0.16647063
83	0x3ee171e4	0.44032204
84	0xbd3181fb	-0.04333685
85	0x3e9c08d6	0.3047549
86	0xbeb4f185	-0.35340515
87	0x3ece7f68	0.40331578
88	0xbe4c19a9	-0.19931664
89	0x3e080138	0.13281715
90	0xbea31d22	-0.31858164
91	0xbdfc3a3d	-0.123157956
92	0x3ec592a3	0.38588437
93	0xbe8405d4	-0.25785697
94	0x3cd36067	0.025802804
95	0x3e9abf0d	0.30223885
96	0xbd831851	-0.06401122
97	0xbe2957e0	-0.16537428
98	0x3e87374a	0.2640937
99	0x3eca9fa6	0.39574927
100	0xbe01a1e3	-0.12659411
101	0x3e82a29c	0.25514686
102	0x3e5e4b41	0.21708395
103	0x3e758994	0.23978263
104	0x3ed97d12	0.42478234
105	0xbe537f1c	-0.20653957
106	0xbe6e84a6	-0.23292789
107	0xbee5644f	-0.44803092
108	0xbe428cf9	-0.1899909
109	0x3e1fb6b8	0.15597045
110	0xbe4250e5	-0.18976171
111	0x3e71f69b	0.23629229
112	0xbdc6b449	-0.097023554
113	0xbdc9c5b7	-0.09852164
114	0xbe05a748	-0.13052094
115	0x3e0cfaff	0.13767622
116	0xbdeb2827	-0.11482268
117	0xbe1bdb62	-0.15220407
118	0x3e9486ab	0.29008994
119	0x3e2b276e	0.1671426
120	0xbe4ae0c5	-0.19812305
121	0x3db42462	0.08796002
122	0x3dd28244	0.102787524
123	0x3e384ecc	0.17998809
124	0x3eb59940	0.35468483
125	0x3ea4370b	0.32073244

model.2.weight f4 [126]
0	0x3fcb409f	1.5879096
1	0x3fbf0f6a	1.4926579
2	0x3fcec87c	1.6154933
3	0x3fcbab5e	1.5911672
4	0x3f94a31f	1.1612281
5	0x3fb8885d	1.4416615
6	0x3faa2360	1.3292046
7	0x3fc3a3d2	1.5284369
8	0x3fcb24f0	1.5870647
9	0x3fd577e7	1.6677216
10	0x3fa19cc0	1.2625961
11	0x3f308129	0.6894708
12	0x3fc6ecd5	1.5541025
13	0x3faea9fa	1.3645623
14	0x3fb384a4	1.4024854
15	0x3fdfe5d0	1.7492008
16	0x3ff74ad5	1.9319712
17	0x3fce2061	1.6103631
18	0x3fdcc7a9	1.7248431
19	0x3fc9e497	1.5772885
20	0x3fe7d53c	1.8111949
21	0x3fa6fae6	1.3045318
22	0x3fafa307	1.3721627
23	0x3fbafd18	1.4608488
24	0x3fc7f5c3	1.5621876
25	0x3fab7906	1.3396308
26	0x3fa88e55	1.3168436
27	0x3fc52ad7	1.5403699
28	0x3f9ec0fb	1.2402643
29	0x3fb55183	1.41655
30	0x3fc9c2b8	1.5762548
31	0x3fa60905	1.2971503
32	0x3fb3f1cb	1.4058164
33	0x3fcc830c	1.5977492
34	0x3f9e1fcc	1.2353454
35	0x3fae9435	1.3638979
36	0x3fe316ab	1.7741293
37	0x3f97c43e	1.1856763
38	0x3fdf0fad	1.7426659
39	0x3fab4dae	1.3383081
40	0x3fd15e70	1.6356945
41	0x3fc74c7f	1.557022
42	0x3fa80bf1	1.3128644
43	0x3f97d180	1.1860809
44	0x3fe97555	1.8238932
45	0x3fd4aa4c	1.661447
46	0x3fca7594	1.5817132
47	0x3fdf5481	1.7447664
48	0x3fd454d1	1.6588384
49	0x3fdf02d7	1.7422742
50	0x3fb61c87	1.4227456
51	0x3fd40eca	1.6567013
52	0x3fbed737	1.4909428
53	0x3fc9aee1	1.5756494
54	0x3fec6725	1.8468977
55	0x3fcb4d61	1.5882989
56	0x3fbe5021	1.4868203
57	0x3fbf0faf	1.4926661
58	0x3fbdc42b	1.4825491
59	0x3fb8fdee	1.4452493
60	0x3fa18b8b	1.262071
61	0x3fbc2bda	1.4700882
62	0x3fac82a0	1.3477364
63	0x3fe8b61f	1.8180579
64	0x3f9d47c9	1.2287532
65	0x3fded65a	1.7409165
66	0x3fe6cd8a	1.8031476
67	0x3fbee216	1.4912746
68	0x3fb7c04f	1.4355563
69	0x3fd7940e	1.6842058
70	0x3fc7fe3c	1.5624461
71	0x3fc1d092	1.5141776
72	0x3fc19a58	1.5125227
73	0x3fa81cd7	1.3133801
74	0x3fa69375	1.301375
75	0x3fd306db	1.6486467
76	0x3fbc9871	1.4734021
77	0x3fe4cde6	1.7875335
78	0x3fddbf4a	1.7324002
79	0x3f91ec9d	1.1400334
80	0x3fcff0eb	1.6245397
81	0x3fcc6b01	1.5970155
82	0x3fc8c243	1.5684284
83	0x3fb798d9	1.434352
84	0x3f9c8407	1.2227792
85	0x3fe97c38	1.8241034
86	0x3fc5c8db	1.5451921
87	0x3fabf428	1.3433886
88	0x3fb7f69a	1.4372132
89	0x3f5809f3	0.8439018
90	0x3fc25e6d	1.5185066
91	0x3fb4ac68	1.4115114
92	0x3fdbbfe0	1.7167931
93	0x3fb8ed93	1.4447502
94	0x3fde3477	1.7359761
95	0x3fe6232e	1.7979486
96	0x3fce14df	1.6100119
97	0x3f9d872b	1.2306875
98	0x3fcd2496	1.602679
99	0x3fa02c33	1.2513489
100	0x3fa7e880	1.3117828
101	0x3f9a74c3	1.2066883
102	0x3fce1663	1.6100582
103	0x3fa389a8	1.2776384
104	0x3fa35e27	1.2763108
105	0x3f9f0457	1.24232
106	0x3fa6fdf6	1.3046253
107	0x3fecb066	1.8491333
108	0x3fd59f40	1.6689224
109	0x3fcd235a	1.6026413
110	0x3fb1254d	1.3839508
111	0x3fbee63e	1.4914014
112	0x3fd1eafd	1.6399838
113	0x3fb12ef3	1.3842453
114	0x3f7f3f1e	0.99705684
115	0x3ff1360c	1.8844619
116	0x3fb05a64	1.3777585
117	0x3fc9eb28	1.5774889
118	0x3faf7a98	1.3709288
119	0x3fb7f3fe	1.4371336
120	0x3faa06ea	1.328336
121	0x3fdfd4a2	1.7486765
122	0x3fa7466c	1.3068366
123	0x3fec413d	1.8457409
124	0x3fa6c8a9	1.3029987
125	0x3fa90c2e	1.3206842

model.2.bias f4 [126]
0	0x4010c3ef	2.2619588
1	0x401638b8	2.3472118
2	0x400f18e0	2.2358932
3	0xc00e2d00	-2.2214966
4	0x400c783b	2.1948383
5	0x400776b1	2.1166193
6	0xc00c2fdd	-2.1904213
7	0x400f889b	2.2427127
8	0xc013eb52	-2.3112378
9	0x400ca3d4	2.1974993
10	0x400dcc98	2.2156124
11	0x400cf0be	2.2021937
12	0x40120065	2.281274
13	0x400ac88b	2.1684902
14	0x400d3d4a	2.2068658
15	0x400d4824	2.207528
16	0xc00dc1ff	-2.2149656
17	0xc00e5e90	-2.2245216
18	0xc00e1ea1	-2.2206194
19	0xc00c662c	-2.193736
20	0xc00f8f4e	-2.2431216
21	0xc0114666	-2.2699218
22	0x400d294c	2.2056456
23	0xc010d081	-2.262726
24	0x400a0f18	2.1571712
25	0xc00e0746	-2.219194
26	0x400ce5dd	2.2015297
27	0x400c9adc	2.1969519
28	0x400e5991	2.2242167
29	0x40108e1a	2.2586732
30	0x400d5e55	2.2088826
31	0x40121c60	2.2829819
32	0x400ef40a	2.233645
33	0x400cebe4	2.2018976
34	0xc00c7008	-2.1943378
35	0x40083f56	2.1288657
36	0xc0105387	-2.255098
37	0xc00cd3cb	-2.2004268
38	0xc01137e5	-2.2690365
39	0x400f73f3	2.241452
40	0xc00cf9f4	-2.202756
41	0xc011b904	-2.2769175
42	0x400cb751	2.1986887
43	0x400eb84e	2.229999
44	0xc00fb517	-2.2454278
45	0xc009eb94	-2.1550035
46	0x4011e149	2.2793753
47	0x400f95a4	2.2435083
48	0x400a4870	2.1606712
49	0xc00fef13	-2.248967
50	0x400f2868	2.2368412
51	0x400cad5f	2.1980817
52	0x400e840b	2.2268093
53	0xc00c62e2	-2.1935353
54	0xc00bb756	-2.183065
55	0xc00c5d8a	-2.1932092
56	0xc00e03fa	-2.2189927
57	0xc00868cd	-2.1313965
58	0xc00b31b1	-2.174908
59	0x400cd81e	2.2006907
60	0xc00f5d97	-2.2400873
61	0x4011d029	2.27833
62	0x400d7726	2.2103972
63	0x400eb4bf	2.2297819
64	0xc00ee8a8	-2.2329502
65	0xc00d951c	-2.212226
66	0x400cccfa	2.2000108
67	0xc00a2b43	-2.1588905
68	0x400b5c67	2.1775148
69	0xc00bd044	-2.1845865
70	0xc0107c59	-2.2575896
71	0x4009cf47	2.1532762
72	0xc00ee733	-2.2328613
73	0x400df7ba	2.218245
74	0x400da109	2.2129538
75	0xc0096a61	-2.1471179
76	0x4011303c	2.268569
77	0x400fcb10	2.246769
78	0x40104823	2.2544029
79	0x401046ab	2.2543132
80	0xc00bb466	-2.1828856
81	0x4010c541	2.2620394
82	0x400e5f98	2.2245846
83	0xc00b6e18	-2.1785946
84	0x40116230	2.271618
85	0xc00eca07	-2.2310808
86	0x400c6150	2.1934395
87	0x4011b5af	2.276714
88	0x400e284c	2.2212095
89	0x4011de89	2.2792075
90	0x400fb187	2.2452104
91	0xc00ee3e2	-2.2326589
92	0xc00d3ea9	-2.2069495
93	0xc00c1efc	-2.1893911
94	0xc00cce6c	-2.200099
95	0xc00e3f02	-2.2225957
96	0xc00d946c	-2.212184
97	0xc00f4bca	-2.2390008
98	0xc00cbe98	-2.199133
99	0x400dee64	2.2176752
100	0xc00ea2aa	-2.2286782
101	0x400e9dad	2.2283738
102	0xc00af617	-2.1712701
103	0x40128fed	2.2900345
104	0x400ee8d0	2.2329597
105	0x400c925c	2.196433
106	0x400eafb2	2.2294736
107	0x400ffc30	2.2497673
108	0xc00c8115	-2.1953785
109	0x400caf92	2.198216
110	0x400e44f4	2.2229586
111	0xc00e0687	-2.2191484
112	0xc0125d51	-2.2869456
113	0x400eb49b	2.2297733
114	0x400f4cfb	2.2390735
115	0xc0118e9c	-2.2743292
116	0x40107aa5	2.2574856
117	0xc0062bf8	-2.0964336
118	0xc0111491	-2.2668803
119	0x400f577b	2.2397144
120	0x400fe069	2.248072
121	0xc00e473c	-2.2230978
122	0x40100d75	2.2508214
123	0xc00d9e03	-2.2127693
124	0x400cba40	2.1988678
125	0x400bdcb7	2.1853464

model.2.running_mean f4 [126]
0	0x3ebce5f2	0.36894184
1	0x3f09af51	0.53783137
2	0x3f0a591a	0.5404221
3	0x3f25a42f	0.6470365
4	0x3f013b1c	0.5048082
5	0x3eef4dc8	0.4673903
6	0x3f4287ec	0.7598865
7	0x3ed93fc0	0.4243145
8	0x3f435334	0.7629883
9	0x3f4f71c7	0.81032985
10	0x3f20e09e	0.6284274
11	0x3eca9ba0	0.39571857
12	0x3f28fba4	0.66008973
13	0x3f12d9b2	0.57363427
14	0x3f2c67a5	0.6734565
15	0x3e92dc4f	0.28683707
16	0x3ee5833a	0.4482668
17	0x3f824668	1.0177736
18	0x3f2d514b	0.6770217
19	0x3e99fb21	0.3007441
20	0x3ed4af64	0.41540062
21	0x3e875a08	0.26435876
22	0x3ed9e980	0.4256096
23	0x3ea291f4	0.31751978
24	0x3f4a3542	0.78987515
25	0x3ebeb3f7	0.37246677
26	0x3f2f66bc	0.68516135
27	0x3f6670e2	0.90015996
28	0x3f239671	0.6390143
29	0x3f5fa35e	0.87358654
30	0x3eeba4ee	0.4602427
31	0x3f13c409	0.57721
32	0x3eb44b74	0.35213816
33	0x3f136f06	0.57591283
34	0x3ecb9680	0.3976326
35	0x3f43223d	0.7622412
36	0x3ea06699	0.31328276
37	0x3f42d83e	0.7611121
38	0x3f56d584	0.8391955
39	0x3f0fbb6c	0.5614536
40	0x3f15228e	0.5825585
41	0x3e3c26d6	0.1837419
42	0x3f505fee	0.8139638
43	0x3eefd125	0.46839252
44	0x3f211eb4	0.62937474
45	0x3f557889	0.8338705
46	0x3eaf0cea	0.3418954
47	0x3eb0e291	0.34547856
48	0x3e94a0a2	0.29028803
49	0x3f3bc408	0.73345995
50	0x3f1fa758	0.6236472
51	0x3f2996f4	0.6624596
52	0x3f2bf7a9	0.67174774
53	0x3f190e4b	0.59787434
54	0x3f955c08	1.1668711
55	0x3ec8cc7d	0.39218512
56	0x3f2b50d6	0.6692022
57	0x3f6ddc46	0.92914236
58	0x3e89397a	0.26801664
59	0x3f286ae3	0.65788096
60	0x3e23abd0	0.1598351
61	0x3ec01a05	0.3751985
62	0x3e8679f8	0.2626493
63	0x3ddde87f	0.10835361
64	0x3f167148	0.58766603
65	0x3ef25cf1	0.47336534
66	0x3e5f8356	0.21827444
67	0x3ecca869	0.39972237
68	0x3f0bfa72	0.54679024
69	0x3f28a912	0.6588298
70	0x3f3caf94	0.7370541
71	0x3f58dcbf	0.8471183
72	0x3e6bfb16	0.23045
73	0x3ee1fa98	0.441365
74	0x3f29bd30	0.663043
75	0x3f0426f1	0.5162192
76	0x3efa0b6c	0.4883684
77	0x3ec25cc5	0.37961403
78	0x3e912890	0.2835126
79	0x3f0bfc50	0.54681873
80	0x3f5698b2	0.83826745
81	0x3f0cc695	0.5499051
82	0x3e4e4b37	0.2014588
83	0x3f4f474c	0.80968165
84	0x3ef6929a	0.48158723
85	0x3f270676	0.65244234
86	0x3dd7923c	0.10525939
87	0x3ee243ba	0.44192296
88	0x3e82d265	0.25551143
89	0x3f190baf	0.5978345
90	0x3e9b06ba	0.3027857
91	0x3e9066a3	0.28203306
92	0x3f660f8d	0.8986748
93	0x3e6e7c51	0.2328961
94	0x3ead8a2b	0.33894476
95	0x3f05bdad	0.5224255
96	0x3ed90ade	0.42391104
97	0x3e98e375	0.29861036
98	0x3f2fba1a	0.68643343
99	0x3f3bcac6	0.7335628
100	0x3ec1b1ff	0.37831113
101	0x3ed14ad1	0.40877393
102	0x3f3ce5d5	0.73788196
103	0x3ed6923f	0.41908452
104	0x3f3767ca	0.71642745
105	0x3e8f9bb5	0.28048483
106	0x3e82fe2b	0.2558454
107	0x3e9428e8	0.2893746
108	0x3e65803d	0.224122
109	0x3f05fbb3	0.5233719
110	0x3ea505aa	0.32230884
111	0x3f11290d	0.56703264
112	0x3ea1a4df	0.315711
113	0x3e80c9f3	0.25154075
114	0x3ef3ea5a	0.47639734
115	0x3f032d44	0.51240945
116	0x3eb91e3f	0.36155888
117	0x3e74d635	0.23909838
118	0x3f456f43	0.77122897
119	0x3f067eff	0.5253753
120	0x3e960cd6	0.29306668
121	0x3ee2a54c	0.44266737
122	0x3ed30d36	0.41221017
123	0x3ecdc153	0.40186557
124	0x3f0fd467	0.56183475
125	0x3f120d0a	0.57051146

model.2.running_var f4 [126]
0	0x3e4ed370	0.20197845
1	0x3ebacb8a	0.36483413
2	0x3ea69aac	0.3253988
3	0x3e807d45	0.25095573
4	0x3ebed38b	0.3727077
5	0x3f43024b	0.76175374
6	0x3eb92e86	0.36168307
7	0x3ff493ad	1.9107567
8	0x3ee2efae	0.44323486
9	0x3f025972	0.5091773
10	0x4047ae42	3.1200109
11	0x3ea7daa6	0.32784003
12	0x3e83cb3e	0.25741
13	0x406ec1c3	3.7305763
14	0x3ef2aba5	0.4739658
15	0x3e1554d4	0.1458314
16	0x3e82ec16	0.25570744
17	0x3f0e25e4	0.55526567
18	0x3eb00b70	0.34383726
19	0x3e5ee26b	0.21766059
20	0x3e707a70	0.23484206
21	0x3e1278db	0.14303915
22	0x3e9bb6ea	0.3041299
23	0x3e06ad3f	0.13152026
24	0x3ee5b080	0.4486122
25	0x3e51c563	0.20485453
26	0x3f1b9da6	0.6078743
27	0x3ecb0c5f	0.39657876
28	0x3ebc82c6	0.36818522
29	0x3f05dc35	0.52289134
30	0x3ee05676	0.43815964
31	0x3f45d8b2	0.77283776
32	0x3ea05f9c	0.31322944
33	0x406bc648	3.6839771
34	0x3e309f09	0.17248167
35	0x3f139418	0.5764785
36	0x3dc27deb	0.09496673
37	0x3ec59bd2	0.38595444
38	0x3ee52673	0.44755897
39	0x3f466fac	0.7751415
40	0x3ef16d8c	0.4715389
41	0x3dc30282	0.09521963
42	0x3f173af5	0.59074336
43	0x3ebbd9f5	0.36689726
44	0x3eb44ccd	0.35214844
45	0x3ee92720	0.45537663
46	0x3e93ab8a	0.2884181
47	0x3ea7d59e	0.32780164
48	0x3e7ff094	0.24994117
49	0x3e92b71b	0.28655323
50	0x3ed3f13c	0.41394985
51	0x3ec1ad21	0.378274
52	0x3f0dbf1c	0.55369735
53	0x3ec81615	0.39079347
54	0x3ef4dc99	0.47824553
55	0x3e8a0598	0.26957393
56	0x3eb4fb60	0.35348034
57	0x3ed8b3ac	0.4232458
58	0x3dc6a82e	0.097000465
59	0x3eded861	0.4352446
60	0x3db3a76b	0.08772167
61	0x3e473976	0.19455513
62	0x3e184684	0.1487065
63	0x3d9d8175	0.076907076
64	0x3ea78ad2	0.327231
65	0x3e464e97	0.19365917
66	0x3e16b7d6	0.14718565
67	0x3e18e4d5	0.14931042
68	0x3e9f2abf	0.310873
69	0x3f4e6ac3	0.80631655
70	0x3ebdb203	0.37049875
71	0x3f30926d	0.6897343
72	0x3d94a1d0	0.07257426
73	0x3f05ddb1	0.522914
74	0x3ed9f8be	0.42572588
75	0x3f04abea	0.5182482
76	0x40276007	2.615236
77	0x3e76a5aa	0.24086633
78	0x3e084302	0.13306811
79	0x3ea87738	0.32903457
80	0x3ee39f5b	0.44457516
81	0x3f146b87	0.57976574
82	0x3dcbf794	0.09959331
83	0x3eed2ef3	0.46324882
84	0x3ea6a09f	0.3254442
85	0x3ebfc0f6	0.37451905
86	0x3db00357	0.08594387
87	0x3ec99a7e	0.3937568
88	0x3e40971c	0.18807644
89	0x3ec98ff5	0.39367643
90	0x3e682ca5	0.2267328
91	0x3dd4b6f3	0.10386457
92	0x3f29c293	0.6631252
93	0x3df2c518	0.11853999
94	0x3e2de3d2	0.16981438
95	0x3e8f264c	0.27958906
96	0x3e901a28	0.28144956
97	0x3dfc426e	0.12317358
98	0x3ea8fa89	0.33003643
99	0x3fc1838c	1.511827
100	0x3e80e6b6	0.25176018
101	0x3e6f3bd8	0.23362672
102	0x3e97dc30	0.29660177
103	0x3ed09a55	0.40742746
104	0x3ef744b1	0.48294595
105	0x3f276d81	0.65401465
106	0x3e7ab95e	0.24484774
107	0x3f6b1742	0.91832364
108	0x3dbe1068	0.09280473
109	0x3e9a12d8	0.30092502
110	0x3e6c24c3	0.23060898
111	0x3ea3b54c	0.31974256
112	0x3e28670c	0.1644556
113	0x3e2a5fd8	0.16638124
114	0x3eb7b83d	0.3588275
115	0x3e946c0a	0.28988677
116	0x3ea93906	0.33051318
117	0x3e117932	0.14206389
118	0x3f22aa57	0.6354117
119	0x3ec550fa	0.38538343
120	0x3e98451c	0.29740226
121	0x3e66671b	0.22500269
122	0x3ef067ea	0.4695428
123	0x3e0e3f32	0.13891295
124	0x3ebd8887	0.37018225
125	0x3fc2b8d3	1.5212654

model.4.weight f4 [1, 126]
0	0x3ffdf25b	1.9839586
1	0x3ffe5c71	1.9871961
2	0x3ff7015e	1.9297292
3	0xc0005d3f	-2.0056913
4	0x3ff6e3f3	1.9288315
5	0x3fecf02f	1.8510798
6	0xbff7ef04	-1.9369817
7	0x3ff7d28b	1.9361128
8	0xc0024238	-2.0352917
9	0x4000eefb	2.0145862
10	0x3febefe5	1.8432585
11	0x3fed9afa	1.856292
12	0x3ff6c992	1.9280264
13	0x3feb6084	1.8388829
14	0x4000b220	2.010872
15	0x400124a9	2.0178626
16	0xbffef994	-1.9919915
17	0xbff78050	-1.9336033
18	0xbffd553b	-1.9791635
19	0xc002dc6a	-2.044703
20	0xc0059b26	-2.0875945
21	0xbff7a039	-1.9345771
22	0x3fefb18e	1.872606
23	0xc000736e	-2.0070453
24	0x3ffe3d44	1.9862447
25	0xbffa707b	-1.9565576
26	0x3ff8335a	1.9390671
27	0x3ff1d742	1.8893816
28	0x3ff4ccc7	1.9124993
29	0x3ff9621d	1.9483067
30	0x3ff98168	1.9492617
31	0x3ff0d475	1.8814837
32	0x3ffab5c9	1.9586726
33	0x4003613c	2.0528097
34	0xbff89b1b	-1.9422334
35	0x3fe82e12	1.813906
36	0xc0011a52	-2.0172315
37	0xbffcf771	-1.9763013
38	0xc005d5f0	-2.0911827
39	0x3ffaad7f	1.9584197
40	0xbffeb785	-1.9899756
41	0xc001f5dc	-2.030631
42	0x3ff48f45	1.9106222
43	0x3fee433e	1.8614271
44	0xc00228ae	-2.033733
45	0xc0039458	-2.0559292
46	0x3ff2dffa	1.8974602
47	0x3ff97929	1.94901
48	0x3ff77996	1.933398
49	0xc003c592	-2.0589337
50	0x3ff776f0	1.9333172
51	0x3ff5ef0d	1.9213578
52	0x3ff6096a	1.9221623
53	0xc000e8d0	-2.0142097
54	0xc0030e47	-2.0477464
55	0xc0028f26	-2.039987
56	0xc0026efb	-2.0380237
57	0xbffbef38	-1.9682379
58	0xc000cc7e	-2.0124812
59	0x3ff316a6	1.8991287
60	0xbff62cf6	-1.9232471
61	0x3ff58c19	1.918338
62	0x3ff447ca	1.9084408
63	0x3ffa1761	1.9538385
64	0xbff30c7b	-1.8988184
65	0xc0032564	-2.0491571
66	0x4004b803	2.0737312
67	0xc0031f5c	-2.048789
68	0x3fe9aa73	1.8255142
69	0xc0006ea9	-2.0067542
70	0xbffda166	-1.981488
71	0x3fed76fc	1.8551936
72	0xbff741db	-1.9316972
73	0x3ff6f204	1.9292607
74	0x3ff73e04	1.9315801
75	0xc003f11f	-2.0615919
76	0x3ffbc55b	1.9669603
77	0x40013614	2.0189257
78	0x3ffd9eb8	1.9814062
79	0x3fee8692	1.8634818
80	0xbff4b8f6	-1.9118946
81	0x4001c4ad	2.0276291
82	0x3ff37174	1.9018998
83	0xbff89075	-1.9419085
84	0x3ff28d68	1.8949404
85	0xbffe5adc	-1.9871478
86	0x3fff8014	1.9960961
87	0x3ff13a4b	1.8845915
88	0x3ffcf843	1.9763263
89	0x3fff21a1	1.9932138
90	0x3ff37a2b	1.9021658
91	0xbfffe7a3	-1.9992565
92	0xbffa37a5	-1.9548231
93	0xc001eac1	-2.0299532
94	0xc0009083	-2.0088203
95	0xc000cd1c	-2.012519
96	0xc002acd8	-2.0417995
97	0xbff0fcbc	-1.8827128
98	0xc000817e	-2.0079036
99	0x3feecb59	1.8655807
100	0xc001225c	-2.0177221
101	0x3ffe9337	1.9888676
102	0xbfff065d	-1.9923817
103	0x3ff3ff8e	1.9062364
104	0x3fee733b	1.8628916
105	0x3ff3d98c	1.9050765
106	0x3fe8e3e5	1.8194548
107	0x4001a9a1	2.0259783
108	0xc000a45c	-2.0100317
109	0x4001b1c5	2.0264752
110	0x3ffcd3f8	1.9752188
111	0xc001c508	-2.0276508
112	0xc005d757	-2.0912683
113	0x3ffad1da	1.9595292
114	0x4000817a	2.0079026
115	0xc0067032	-2.1005979
116	0x3ff47883	1.9099277
117	0xbffe0d0d	-1.9847733
118	0xbff6017f	-1.9219207
119	0x3ff1df6a	1.8896306
120	0x3ffb7cf8	1.9647512
121	0xc003ea40	-2.0611725
122	0x3ff5d2af	1.920492
123	0xc000d266	-2.0128417
124	0x3ff51475	1.9146868
125	0x3ff7c549	1.9357082
